models/matching_nets/omniglot_n=1_k=5_q=15_nv=1_kv=5_qv=1_dist=cosine_fce=None.pth (torch, 908177 bytes, 24 tensors)

encoder.0.0.weight f8 [64, 1, 3, 3]
00000000: e630 6532 47e1 d43f 39cd 2a2a f33f b93f
00000010: f5d4 cf4d 77cb afbf a812 0dca fc66 723f
00000020: 2a42 f42b 633a d6bf cfd0 65e4 ef27 d2bf
00000030: e88c 9442 9ec4 c1bf e0ce 7901 33f9 d53f
00000040: 777d 1bb1 94d6 d63f 95e7 9015 638c cb3f
00000050: 0d24 80f3 14f4 c03f 7128 a232 70a1 a03f
00000060: 5c9d ba3f 500c d23f 7541 19db 043f d53f
00000070: 771a 9df8 9918 d13f edea c541 d15c aa3f
00000080: f76e fcc9 8cba d7bf c3a4 0d1b a73a d2bf
00000090: 7d5a 1a70 083f d73f 92c6 f942 ed7d b63f
000000a0: c57c 3372 8fd3 c7bf 5573 6f75 bf4b d2bf
000000b0: ca63 1ce8 ec65 bfbf e4b3 1261 36e8 cf3f
000000c0: edb0 ff7a d846 84bf dcfe 61bb 2f40 b13f
000000d0: 91a0 157d 58a5 96bf a280 2d8f b946 d33f
000000e0: b7f8 d0e2 7617 a43f dccb 8fbc 5189 cbbf
000000f0: d83b e9dc 358d d33f 845c 748d cecd b1bf
00000100: 0e38 d367 5e54 cfbf 5c3e 16fa 5215 d4bf
00000110: 3bb3 1de7 a7c8 c03f 6df4 7e9a 9be8 d03f
00000120: f66c 0926 0d34 e3bf 59fb e391 4da1 9bbf
00000130: 425b ffdb 239a c8bf a4bb 9614 11bb d0bf
00000140: f2ae 1ee6 5b1c b63f ae70 a2ca f4cd c63f
00000150: fb1d ab60 3f99 8cbf 20f3 1ae3 96e8 afbf
00000160: d451 75cc 790f c9bf 0be0 0cbe 0511 b1bf
00000170: eb89 77ca bc81 c93f ef32 da01 db25 c23f
00000180: 5960 1579 b18d cdbf c445 064e a5b3 c7bf
00000190: 187d 8328 7847 db3f 10ef 5e40 0375 d03f
000001a0: 4dc2 d31b 2224 c9bf 4c06 5151 c04e 9cbf
000001b0: 798d 64f4 92eb bdbf fa4e f322 b7ee d03f
000001c0: 24b6 3b03 7c39 c53f 99ad 2271 54aa c1bf
000001d0: a768 45ec baa8 c93f 4f44 ba61 f33f bcbf
000001e0: 7594 d9ac 9ae6 583f b4af e85e 40f9 d73f
000001f0: 326b 645d 51be c5bf 64b7 15ce d888 abbf
00000200: e154 78d7 3fed c93f 675d c0c7 d2d7 c33f
00000210: 2351 2aaf be01 933f e160 2aec 7d8b 9c3f
00000220: 4721 d1f5 c3be 6d3f 0f47 891e 1d1f d73f
00000230: 6b70 e7fb 1e82 d2bf a7d0 3139 e0ae 693f
00000240: bdc2 65d0 403c d2bf e6fc 9cfe b17a bd3f
00000250: 6d0a c7f3 0ff0 79bf 26fb 015d 1f03 c6bf
00000260: 318d 41d1 be0c cebf b820 8c75 8893 afbf
00000270: 00f4 0f63 0ca2 d2bf 6440 a0fc da5b c33f
00000280: 9864 02e6 6d35 c6bf d150 077e 9563 cfbf
00000290: f436 dcd0 d0c5 a7bf 3921 531b fa8b d93f
000002a0: 3873 804f 2e24 babf 59d7 9bc0 4a2f d33f
000002b0: 8f7a a57e 6739 c63f a160 4851 79b4 cbbf
000002c0: 9c49 a65c 70c8 b53f ae71 b7ae 23a3 b33f
000002d0: e0e7 108c 3a9e d83f 18ef 6986 a313 c2bf
000002e0: 4f6d 713d 46e9 cdbf 7f4e b3ad f770 d13f
000002f0: 2cb6 8e5b 9b25 b9bf 01a1 3803 8385 bfbf
00000300: 5070 853b 5b77 d03f 90f1 d5a5 ef40 c4bf
00000310: 819c c653 f1a9 623f e24d 72a9 c436 cf3f
00000320: ff56 0ada 0ad7 bc3f 928d e7e4 deb0 cabf
00000330: d923 f6dd a381 a73f c55d 0ef0 0091 a3bf
00000340: 41ac 5228 17b7 973f 4c03 faec 3971 7a3f
00000350: 6c12 e091 edf6 bfbf 120e f95d 01b5 d13f
00000360: 6a27 6125 0a1a d9bf 038c 5493 39a3 cb3f
00000370: f002 fe6d 68ab cc3f 0729 0818 0456 d33f
00000380: 4372 5837 3723 bfbf 1114 a44a 0e84 b03f
00000390: 4787 fcd4 1252 b93f fd2f 874c 7eb9 bebf
000003a0: 343d 05b1 c096 ca3f 10d5 f7b2 cc2d c13f
000003b0: 4e89 7824 32e1 d2bf 5b9e f1cd f7ec cb3f
000003c0: a351 4088 80c0 d1bf d5a2 5c6a 28d7 cdbf
000003d0: c81d 9dfa 527e ca3f 0291 0291 e47d a33f
000003e0: e36c 60e8 e101 cd3f 134e 813c f4ed d13f
000003f0: d73d b7d9 b7fe b0bf 667c 659c 8422 d13f
00000400: d3a6 5121 7580 c43f 931e 5620 e491 d9bf
00000410: 889a 9cf6 e814 79bf 6414 24ba 2c8b d63f
00000420: c012 dc04 8c10 cfbf 28fb b575 aa93 c83f
00000430: 0afd ecca 5479 cc3f 2e78 8d30 a2f0 8e3f
00000440: 4487 40a7 9f7f d33f f147 3a9e 38f4 c23f
00000450: f44c 8e7b e00a a3bf 86b7 64be ec3b c7bf
00000460: 2f0d ffbc 2547 d73f 3a0f f6b8 d98a c6bf
00000470: b5fd 38ae 5414 bfbf 29e4 ffa5 2440 c23f
00000480: f53c c47e d66c d43f a02c 7945 64b6 c4bf
00000490: 3bc1 2041 20f8 b73f 0068 7566 e3ec c93f
000004a0: 96cd ef70 6048 d7bf 62c5 6ae6 1f84 703f
000004b0: 62ef 12ec 382d cb3f ff76 ca1a 08ff c5bf
000004c0: 1e8b 1541 0bef c93f ebef f2ba ea7a cbbf
000004d0: 212e c858 f038 b4bf 5366 673a ffe3 d53f
000004e0: b01f 0cd0 0037 d13f 7158 9149 13e7 bbbf
000004f0: 00f8 fce7 19d5 83bf 5416 bedf 4ede 9ebf
00000500: b28d 29a8 cd47 b9bf de10 7a8d 74a1 d43f
00000510: 1bea c91d be65 cf3f ce54 6c9e 0b24 cbbf
00000520: 817b 19d6 15d2 d03f 0d91 6dd0 3b2d d63f
00000530: 2894 ac90 e64b c43f eae4 263e 73fe d0bf
00000540: e37c ee8f ed52 cfbf 24f7 89d5 89a6 a53f
00000550: d3f4 792c 1c54 a23f 8c91 256b 3007 c83f
00000560: a9a2 3705 a7dc c3bf 8049 b527 5842 bcbf
00000570: a2bd bc05 186b bd3f 5c63 ef5d 47df c03f
00000580: 15a1 2afe 1035 c83f 3b90 eab2 c8f9 d5bf
00000590: 5ab0 deae e667 d0bf de90 5d10 7082 c2bf
000005a0: e996 fb6c 042e c5bf f2ed f891 9e52 cabf
000005b0: 4896 a058 ca9a d33f 722d bbb2 0095 c4bf
000005c0: 905d 1be3 63c0 b83f 5ef0 75a9 f40f aebf
000005d0: e0a9 aef0 b6ab da3f 9931 b0a3 e93b d83f
000005e0: 8e4f 3564 f162 c5bf 9d0d f527 a0f6 d43f
000005f0: e367 9dbc 95fa d4bf 5a09 5973 81e1 d33f
00000600: b1c5 3b5f fc86 b23f 00b6 bb53 9258 d3bf
00000610: a6c1 f6bb 6605 b8bf 2ae9 6e45 6f13 bc3f
00000620: 5866 f95b 92db a73f 796e 1430 4e22 bc3f
00000630: 7043 13cd 93cd d73f 6756 42a8 43ea d1bf
00000640: 3b4a fa5b ec11 7c3f 5bff 1d4b af48 bb3f
00000650: 1d50 00ca 4945 653f 9b4b 84b7 2176 b13f
00000660: 2ff2 1938 da70 c4bf 9527 ba0f 0171 d13f
00000670: 9872 4354 9844 afbf 6c2a fd25 b546 ad3f
00000680: ca4a e7cf 9b2b de3f 3133 7393 0b01 c53f
00000690: 9c76 a51a 5efe cb3f bb90 7d04 5605 c0bf
000006a0: 68f4 2cf9 ced6 c5bf 6b91 5e2b fd18 d3bf
000006b0: 9ff1 68a0 3dae c63f 7771 f5b9 43ad c7bf
000006c0: 1486 a37c 212e e03f df5f ae2f 30cf ccbf
000006d0: 18c4 5056 061d 93bf 344e ac31 8c3b c3bf
000006e0: bf80 84cd 1ef1 c3bf 05a6 e665 56c7 ce3f
000006f0: c8d6 28f7 091a 91bf b895 a185 77a4 ccbf
00000700: b240 5ab2 fa2d d63f 2d48 d90a 5320 d5bf
00000710: 19db 308a 8820 d2bf 6f28 0473 0cb8 b0bf
00000720: 73fe 8b36 c2f3 ae3f d830 ba80 8307 ca3f
00000730: 49cf 2d96 a118 ccbf 1c40 5df7 93d5 babf
00000740: 929a 2de9 65b4 c53f 5bef 4fe4 a808 c53f
00000750: ab3b 59b9 bb3c ba3f 85da 2dad 9846 ba3f
00000760: da31 8127 290a a43f 432d d4ba 2dc4 d83f
00000770: 8f24 1134 f81f d43f c127 581f 3ab3 97bf
00000780: 5f4e ae1d 2425 d0bf e45f cc93 1918 cdbf
00000790: 88a7 f39e 6e98 b13f 4473 3cfc 265b d43f
000007a0: 5ddd 00ff 3604 b8bf d21d eca9 b0d4 ccbf
000007b0: 3910 7dd2 e91a aa3f fd10 246e 72a9 a3bf
000007c0: 62c2 914b 2c92 cabf f789 6abe 87ad d13f
000007d0: 9bc7 068c eab1 c13f 7d98 290c 1eb6 c6bf
000007e0: 37aa a16a 84d0 6abf 656a 42ce 9b59 d2bf
000007f0: eab3 2409 f896 b63f b1f6 9c6e 82fb bd3f
0.3262498848096257 0.09863204745743283 -0.062099197624698656 0.004492747743658633 -0.34731368343730884 -0.2836875658461055 -0.13881281138410562 0.34333491462824206
0.35684697433131113 0.21522177269963252 0.13244878663707063 0.03248167627414567 0.2820015547135506 0.3319713725695899 0.2671265533321398 0.05148939063925249
-0.3707611057777593 -0.2848298801605546 0.36322222659638453 0.08785899052761639 -0.18614380909182252 -0.28587328403755424 -0.1226490084340092 0.24927406062980062
-0.00990075230944184 0.06738565754676124 -0.022115118631888257 0.301191701719299 0.039241519153152486 -0.21512815196146462 0.3054937989554083 -0.06954661324958705
-0.24476223058303542 -0.3138015215163017 0.13112353119813655 0.26419725501529606 -0.6001039259821528 -0.02698250964112545 -0.19220398180069692 -0.2614176465094096
0.08637022369537897 0.17816028494133235 -0.013964171540819406 -0.06232139131814152 -0.19578478320421644 -0.06666599168681857 0.1992717732055803 0.1417802580875995
-0.23088663494377462 -0.18516985235014094 0.4262371440544981 0.25714188848699937 -0.19641519888638684 -0.027644162142911363 -0.11687582460995384 0.2645700303375943
0.16581678541062772 -0.13801055454437686 0.20046173607517412 -0.11035081039359905 0.0015198240756942015 0.3745881010861425 -0.16987053928536394 -0.0537784339493175
0.2025527765369253 0.15502390626418647 0.018561343613854874 0.02787586931171482 0.003631003126916141 0.3612740324216341 -0.28919195747380994 0.0031351451266861843
-0.2849275622493613 0.11515343156951338 -0.006332456887721533 -0.1719702915324543 -0.23476395814496123 -0.06167246279625388 -0.29114064859442124 0.1512407048726373
-0.17350553255963486 -0.24522656110514743 -0.046431088920241864 0.39916851681165927 -0.10211457673035518 0.29976147469948483 0.17362683948427501 -0.21644512623675374
0.0850897051043717 0.07670805945912804 0.38465751341175114 -0.14122432768987703 -0.23368146896505457 0.2725199886601572 -0.09823008523263671 -0.12313097790377371
0.2572849351179274 -0.1582316932434762 0.0022783006117666487 0.2438588931441777 0.11265628646136959 -0.20852266480424625 0.045910950512798095 -0.03821566515324152
0.023159372173420904 0.006455637237764499 -0.12486157237442236 0.2766726892188852 -0.39221433306067033 0.21591872876987858 0.22398095484461278 0.30212499949324506
-0.12163109875877702 0.06451501199997291 0.09890859317650068 -0.12001790397988539 0.20772560733392142 0.13421019304920678 -0.29499486505132644 0.21816918903208457
-0.2773743944719859 -0.2331285971970575 0.20698010670660794 0.03806986112729939 0.22661994787708925 0.280148562514314 -0.0663866907627758 0.2677318122204667
0.16017021300222342 -0.3995294872079082 -0.0061234569673504005 0.35224455049348635 -0.24269247281349315 0.1920064043769909 0.22245273502810675 0.015107409578998778
0.30466452916345 0.1480780384632108 -0.03719235904932275 -0.18151625916055653 0.36371749359769273 -0.17611238032633897 -0.12140397313577618 0.1425824938339997
0.31914293651148223 -0.1618161524987487 0.09362985219991497 0.20254175665724006 -0.3637925246141206 0.00403225384677461 0.21231757666634637 -0.17184544857166625
0.202607542781231 -0.21468862655990448 -0.07899381797340556 0.34204083159929616 0.26898212735295157 -0.10899467989051616 -0.009683802025048038 -0.030144913107071084
-0.09875188212895727 0.3223544484719819 0.24529243902709727 -0.21203751788622188 0.26282258899839667 0.3465108428411135 0.15856630386511594 -0.26553040570759257
-0.24471826103124447 0.04228621226955756 0.03579795878338534 0.18771939498686796 -0.1551712775683616 -0.11038733453214 0.11491537227697404 0.13181392752337728
0.1891194573447669 -0.3433706042508253 -0.25634162022720874 -0.14460564421745564 -0.16546683617996585 -0.20564634444768576 0.3063226571560773 -0.16079720236880807
0.09668564123727763 -0.058715482412453154 0.4167306280529868 0.3786567781942494 -0.16708199875813218 0.3275528326232349 -0.32779448909206915 0.3106387735789632
0.07237222027813207 -0.30228098084521093 -0.09383241738283363 0.10967154927394476 0.04659707424862053 0.10989845918487075 0.37192244555358567 -0.2799233573108268
0.006853030470340966 0.10657783111491652 0.002596515769264242 0.06820879679098228 -0.1596939824993497 0.2725222257218943 -0.061070213590686595 0.05718008126003302
0.4714116602237196 0.1640943975420668 0.21870018292513727 -0.12516284198057356 -0.17061793486383015 -0.2984002040414199 0.17719240505711029 -0.18497511463182167
0.505631202159011 -0.2250728829210393 -0.018665408151893187 -0.15025474954073703 -0.15579590830839682 0.2404582974971136 -0.01670089312593495 -0.22376913094482886
0.34655635277978114 -0.33009792384575826 -0.28323567862700966 -0.06530835922254295 0.060453480871726216 0.20335429940713 -0.21950168450313814 -0.10482144154707423
0.16956781278277738 0.16432677410181892 0.10248921656714909 0.10263971546178581 0.03914002043947891 0.38697379345895316 0.31445126614250624 -0.0231446344023778
-0.25226691149257435 -0.22729797093120319 0.0687321794572694 0.3180634940379614 -0.09381431317966844 -0.22524078652371188 0.05098658270301865 -0.03840215296261993
-0.20758584680472142 0.27621644587830424 0.13824207150679232 -0.17743278116103403 -0.0032732568989122485 -0.28671927588007967 0.08824110244013608 0.1171189804126367

encoder.0.0.bias f8 [64]
00000000: 4300 d57c 0f6c 853f 44aa 6a1a 46ee d33f
00000010: 5f94 56fc cb6c c43f bac7 249a d135 d43f
00000020: 1daf 0f00 1e01 bfbf 18da d272 03d9 cdbf
00000030: f4b8 73a1 1a5e cebf 4a61 b24c ddf4 c73f
00000040: 0f1d d34e af09 64bf 75c9 923b b3d6 cb3f
00000050: 0539 3746 a1fc ca3f e50e 0fad 77ff c03f
00000060: 2a05 dea3 070a d13f 99d0 f416 5439 d13f
00000070: 97f4 323e d1a5 c53f 3e8c 579c 9584 d33f
00000080: 103d f941 38e3 d3bf b91b a791 0a69 d3bf
00000090: d30e fbb1 0e3e bfbf 031a e3cd 0e46 bcbf
000000a0: a759 ed75 e04a c4bf 40e6 423b 710e cfbf
000000b0: 7846 c172 9dae c53f 9db3 bcaa d082 a4bf
000000c0: 2571 4bdf d126 d53f f528 aef2 2845 aabf
000000d0: c4ba 1889 b07b b83f f507 1bff d638 c0bf
000000e0: 9ed7 cdff d0f8 d3bf 8346 8fd6 5cac d03f
000000f0: 12cf 0779 df9c b33f 6b3e 3933 0f4a b63f
00000100: 25f5 b921 dc84 a8bf 7850 8bf9 eb3f b1bf
00000110: eeb7 6e21 80a9 d43f 247c 22f1 fa42 b43f
00000120: f44e cefe 859b b8bf 9a2e fa3d 3af6 ca3f
00000130: b12b d451 0cd6 cf3f 57da d4c8 86ee c03f
00000140: 17e5 7bca 7da1 a23f 1aad 95d7 8007 d3bf
00000150: 16c1 1d45 93e2 a73f a4d3 250b 6970 a1bf
00000160: 324e d8cd 60ea d13f 138a 45b9 74b9 c9bf
00000170: dcbf 6f48 cf88 c73f 7ced 2505 2fbb c33f
00000180: ba0a c1de 3b78 ac3f 6927 d8c0 4a1a b8bf
00000190: b042 5bfa 50e1 c33f 6e5d b8ff 7534 c3bf
000001a0: 8dc3 7411 516e d0bf 8b53 528a 38d1 b4bf
000001b0: 2973 0663 6ed7 c63f b62b e6fa 4f1d c33f
000001c0: 3635 883e 18a0 c83f 67b5 1c45 87cd cf3f
000001d0: 1d14 562c b8c0 c23f 2d83 0a78 96b7 d3bf
000001e0: 0c88 9110 46d5 bbbf 9a89 0d22 f861 d43f
000001f0: 48ac 7d71 f7ec ba3f c3c0 1c04 6834 c0bf
0.010460015294143093 0.3114180810904694 0.15957021542741054 0.31578483632176424 -0.12111079694267031 -0.23318522554991783 -0.23724682696724353 0.18716017003021995
-0.0024460243208498443 0.21748962792259943 0.21083465507985735 0.13279624891412492 0.26623717310583805 0.26912405244662235 0.1691228440958283 0.3049673105981049
-0.3107433933518715 -0.30328621124175076 -0.12204067082626162 -0.11044399763623151 -0.1585350585762175 -0.24262824433917451 0.1693913278891619 -0.04006054004853541
0.33049437337992266 -0.05130889856725843 0.09563735339245755 -0.12673461395576138 -0.3120615480505594 0.2605201812085413 0.07661244110914492 0.08706755638672241
-0.04788864051531964 -0.06738161890399563 0.32284549012081143 0.07914703738286782 -0.09612309904906252 0.21063926721796095 0.24871973033472508 0.13227925115798442
0.03638833138206559 -0.2973329644507473 0.04665050715164136 -0.03406074772912085 0.2799303064541362 -0.2009721665045424 0.18386260067882076 0.15414989234328036
0.05560481161275761 -0.09415118415941283 0.15531360840261277 -0.1500384806283636 -0.2567331953496755 -0.08131745697967412 0.17844943843092523 0.1493320441334995
0.19238570264170968 0.24845972895256382 0.14650633015495 -0.3080803081775681 -0.10872304825309714 0.3184795696780839 0.10517832299017116 -0.1265993137435598

encoder.0.1.weight f8 [64]
00000000: a327 8227 d315 f13f 54b6 6a85 4ffe f13f
00000010: a3b5 16f0 d715 f23f 4654 048a 078d ef3f
00000020: c41b 8c25 fc43 e43f 34ed 1db2 bdac f13f
00000030: 878c e1e3 fc37 f23f e84f 5bb3 0312 f73f
00000040: c88d 82ed c366 e63f 5a3c efa7 5b0d ef3f
00000050: 8a5d 6165 bd85 f13f b708 c3f8 a6f3 f63f
00000060: da2d 5b94 bd73 f43f faef a570 4da6 f03f
00000070: 1e26 4ec1 c2aa f13f 2a18 d1d2 9687 f43f
00000080: f51e 1ac0 00f9 f33f d5c3 959b a800 ef3f
00000090: 7d30 3f22 c694 ed3f 582d fb11 d956 e33f
000000a0: e2d3 573f a092 ef3f 2d54 2db1 e1d3 f13f
000000b0: c316 fead ebc2 f43f abd5 ed98 2f50 f03f
000000c0: 4f9d d344 5b46 f03f 8de4 85d4 7145 e33f
000000d0: 0c2e 7bd9 4dff ed3f 7bfc f100 8169 f13f
000000e0: fecd e004 8f4a e43f 929d c793 50ac ed3f
000000f0: 401e 9e42 9c8a eb3f ccf5 fb67 9a85 f53f
00000100: c683 98fe 56b5 f33f 1e88 5df6 27a8 e63f
00000110: 66f7 b888 46b4 e83f b276 e4d6 6099 f23f
00000120: 5d5c 0611 ec6b e73f db7d 9bf0 0c3e e13f
00000130: 330b cf7d 853b f73f 22f2 3654 6599 f23f
00000140: 731c 98c2 b6da f53f 1ce6 2abf f642 f13f
00000150: d483 f7f1 0b6f ee3f 91e8 1d5e f865 ef3f
00000160: e649 650d f6fd f13f 640d 5286 6f94 f13f
00000170: 0190 c4f9 30d0 ed3f d546 d73b 6da5 e33f
00000180: c58c 189b d784 f13f 16f0 d788 1eb6 e33f
00000190: b841 2d46 72fc e53f 97d7 be65 e3d0 e33f
000001a0: 7b4a 2d93 fc01 f43f 4c27 7459 2c7a f53f
000001b0: 84e8 356b abe0 f43f f6ad da31 476a f23f
000001c0: a9c4 b942 a159 e53f a7a1 033f beb4 ea3f
000001d0: dbd8 6a94 0abf f33f de1d 3191 858a f53f
000001e0: b379 f0fd 59ef e93f a1ea 5e36 d9b7 ec3f
000001f0: 96c0 bb1b 10d1 f23f d234 1285 5b7d f03f
1.0678283255860854 1.124587556037473 1.130332887503166 0.985965508999137 0.6332989438386609 1.1046730954829629 1.138668909225801 1.441898060428679
0.7000445975176541 0.9703806190463056 1.0951513252419738 1.4344854085216363 1.2782569689905956 1.0406011963195838 1.1041896391856265 1.2831028208761475
1.2482917312608468 0.9688303984422598 0.9244108837970227 0.6043515540308517 0.9866486775559873 1.1142289086321953 1.2975880428870574 1.019576642397946
1.0171768845119293 0.6022271300163468 0.9374150512389305 1.0882577931331798 0.6341013999248728 0.9272845159838872 0.8606702138067206 1.34511795634113
1.2317724175593283 0.7080268680404094 0.7720062895166222 1.1624458688960826 0.7319240887180843 0.5388245295870847 1.4520316042332524 1.1624501504549092
1.365896949895412 1.0788485972865436 0.9510555005946295 0.9811975324839911 1.124502231909554 1.0987391707320393 0.9316639784124164 0.613943688275152
1.0949321802552714 0.6159813568806409 0.6870662089004815 0.6192490565506316 1.2504850148294782 1.3423274511610144 1.304850977698636 1.1509468028478955
0.6671911528811921 0.8345633726831253 1.234140949015958 1.346318785815917 0.8104677161934916 0.8974424421242767 1.176040752729056 1.0306048582163396

encoder.0.1.bias f8 [64]
00000000: 7736 ffc6 11ab cd3f ed72 0a5e 048c be3f
00000010: 7a00 9ebf 8935 d73f 8373 9e6d 04cc cbbf
00000020: 389b c937 805e dbbf 181c a56b 3a86 b63f
00000030: 50a4 d879 9fe8 b13f 28e2 6ae4 c53c bc3f
00000040: 75a7 e98d a23b d9bf 6367 b6a7 857f c13f
00000050: 68c3 cf9d 8d6c b43f 113d 3302 92b3 c63f
00000060: 91e7 248a 3850 c03f 2720 bb68 d02e b53f
00000070: 3334 696e 8704 c53f 05b2 ac70 9690 cc3f
00000080: 80e5 2d24 d932 cf3f e4ee 5453 16c6 b6bf
00000090: 8ac6 592a 0fe5 bd3f e4f8 c3c0 f560 dbbf
000000a0: 274b 2387 f341 c93f 1f67 cfba da39 d83f
000000b0: 259c 7499 5059 d23f d619 be06 a6b3 d33f
000000c0: 3e62 f58d ae8e c43f 6aa9 db0e 9547 ddbf
000000d0: 5969 5a33 506f b5bf 03f5 0170 7f65 c2bf
000000e0: 2b19 db01 36f2 debf c681 9576 ff31 cbbf
000000f0: 4c98 d1b8 d6d4 d0bf 9651 b763 653f d03f
00000100: 30ec 0c1e 3b42 ab3f 4bc9 76fe c8b0 debf
00000110: a9d0 6515 2956 d4bf 7a2e 61fb 6b6d c93f
00000120: ac8c 82f2 6787 d3bf 77d8 b582 a006 e1bf
00000130: fe3d d50e 35f4 cd3f 5f6c f58a cdb3 c63f
00000140: 571c f4d9 a195 d53f f5c7 69fa 5a2e c33f
00000150: d73e 5ff1 4b95 bb3f 6288 deb7 2749 d1bf
00000160: 1f33 4615 ad5a c73f d77e 9092 fa9d c8bf
00000170: ab63 b4fb eabe cbbf 7a04 52ff 6d52 ddbf
00000180: fd38 e41f 399d b83f 991f c3b2 bf06 debf
00000190: 1223 e7c3 d12b ddbf 4013 aa19 1ab5 dfbf
000001a0: c39a 142e d35c c23f e834 60d3 faf6 bd3f
000001b0: d392 a17b 5f34 d23f 2509 b127 40d7 d53f
000001c0: d1c7 7a53 3c5f e1bf 6188 e976 2b22 ccbf
000001d0: d1b7 229a 4f2c b23f ac2f 0dca cae9 b23f
000001e0: c9fc ee20 ea54 d0bf 4616 7d84 b299 c5bf
000001f0: 76df a78a 2eed c03f 3e45 2718 6752 c9bf
0.23178312508246154 0.11932399078291285 0.3626427050840061 -0.2171636138199596 -0.42764287422180614 0.08798565986681728 0.06995579457056178 0.11030232264136741
-0.39426483019507624 0.1367041653546109 0.07978139021703401 0.17735505206517435 0.1274481462986015 0.08274557644756496 0.16420071498069574 0.22316246511162788
0.24373926416937408 -0.08896007093874975 0.11677641662552155 -0.427792967078757 0.19732517336395825 0.37853115313702007 0.28670134530915653 0.30783987673239943
0.1606043046147238 -0.45749403429967705 -0.08372975591411115 -0.14372246712802203 -0.4835333841441691 -0.21246331491694387 -0.2629906468267833 0.2538693879880837
0.05323967687441955 -0.4795401082038963 -0.31775881852741833 0.19865178846736226 -0.30513952906239683 -0.5320589592872825 0.23401511406198944 0.17736214909641299
0.3372578266575536 0.14985215403754606 0.10774683611748102 -0.2700900359724355 0.18245471514492181 -0.19232113033739637 -0.21676385202661427 -0.4581561082232565
0.0961490347728819 -0.4691619153713816 -0.45579952365055576 -0.49542858606610096 0.14345779180549387 0.11704986248533411 0.2844465930304924 0.3412628543484451
-0.5428754454098855 -0.21979277902852615 0.07098863137318225 0.07387988503358994 -0.2551827737442634 -0.1687529704014869 0.132238214209561 -0.1978272312103772

encoder.0.1.running_mean f8 [64]
00000000: ee31 5daf e1ce d13f d5fa c1a3 8e3a ed3f
00000010: 2147 5ac6 c429 d23f e507 64f5 03d5 df3f
00000020: 50b1 501f 77c8 f1bf 0fb4 3cd4 7301 ab3f
00000030: 3671 beb5 bd2a c93f ce3a da04 316b e23f
00000040: e015 c336 5915 ecbf 506b cc73 5a77 e33f
00000050: 38ae 2359 fed6 d63f 9782 b5a4 ea1e dc3f
00000060: 1701 fee1 b279 e63f 2de2 3ac1 c435 e13f
00000070: 1d14 99a0 9a7c e33f 8a9f 5c48 080d e73f
00000080: 432f ade7 5773 84bf 483e e570 6ba4 aa3f
00000090: dadd b79f 2003 cb3f 7f5e bcc1 627f ddbf
000000a0: 5da6 e8e6 c7c8 cf3f 0016 a03d 32a6 94bf
000000b0: 2801 cbf9 2fe0 dd3f fce9 176d 33d4 ce3f
000000c0: a001 3ea8 041e e33f 5d48 b005 ebe6 dabf
000000d0: b464 8a67 e406 e23f 9dc3 54ff db3b b7bf
000000e0: 2c7e 977a 44e9 eabf 227a 65cc aa2d d63f
000000f0: 2d57 0016 8c42 e13f 4f97 6b72 a653 dc3f
00000100: 952b f99f 296e db3f 0602 3831 6f95 e2bf
00000110: 190d 957f af2f e13f 2266 9577 5eb3 de3f
00000120: 5795 385f 9854 e43f d761 394d aa04 e1bf
00000130: 0c98 8d47 8136 e53f 1382 7fef a63f d23f
00000140: bd14 2af9 a813 cd3f 34b0 6f83 ca0c d13f
00000150: b4c3 0ce2 0538 db3f 6289 98a1 c447 dd3f
00000160: 32f1 760e 1153 d53f fbcb e267 e3ed b7bf
00000170: 36cb f3ca 4792 c53f cd25 628b ec0c e8bf
00000180: dd6e 5eaf 4f61 d53f fbcc 4d8d 195f f0bf
00000190: 31f6 0d10 fe85 e2bf 553f 81f1 4b66 f0bf
000001a0: 3238 e665 4a95 c83f 7aba ddbc 8541 db3f
000001b0: dab4 89f6 be69 d83f dbf9 7891 f843 cf3f
000001c0: 259b 089f a8df debf fc88 8880 7d8f da3f
000001d0: cce3 b2e0 9dd9 d63f e33a 5783 5d8b b03f
000001e0: 7e3a e417 b54f af3f ced3 927b 71a0 e13f
000001f0: c23d 32e5 baf8 e13f b73a a0fb a8cd cd3f
0.27825204968829 0.9133980940240131 0.2837993561780526 0.49737643207492815 -1.1114417289018839 0.05274545636925875 0.1966168534680805 0.5755848974966626
-0.8776060170718516 0.6083194982232758 0.356872164774106 0.43938699803224196 0.7023558057699429 0.5378135465644555 0.6089604508093803 0.7203408635441388
-0.009985625035959017 0.052035672694384305 0.21103294180623672 -0.46090001029504174 0.2483148457989043 -0.020165238391220086 0.466808313311065 0.24085085703684672
0.5974143300991734 -0.42034411960151435 0.563341333606465 -0.09075713142079996 -0.8409750360842216 0.34653730354867396 0.5393734388078194 0.4426056020150683
0.4285987913360086 -0.580741497164184 0.5370709888306094 0.47969781568608216 0.6353265628610342 -0.5318194874080814 0.6629034421464453 0.28513501537784797
0.22716247717122498 0.26640570483755543 0.4252943713682342 0.4575053766331135 0.33319498455581986 -0.0934736374500033 0.16852662477284647 -0.7515776369411299
0.33406440854899505 -1.0232177276309915 -0.5788564981045906 -1.0249747689994895 0.19205598807860863 0.42587417072255784 0.3814542205426058 0.2442618093791243
-0.482401042276637 0.41500794937213903 0.3570322698902231 0.06462654549180118 0.061154994169659624 0.55083536277254 0.5616125561227181 0.23283874784870814

encoder.0.1.running_var f8 [64]
00000000: 3c20 4ef0 adf1 8a3f d453 b19a 4e4f a63f
00000010: f093 3d3c 7b8c 6d3f df7f e2ea 9ac4 803f
00000020: 07d6 f1b0 dba7 b43f 67b1 e7b2 a1ae 8a3f
00000030: 3a2e 2fd3 0029 933f f7d9 72bb 2c44 8b3f
00000040: 318b b19a e9b3 ad3f ed05 e33d 8481 9d3f
00000050: fd74 450a 01dd 963f c7ff 43e7 3894 813f
00000060: 6269 6dc7 375c 923f 8cb9 e7de 5f28 943f
00000070: 1a4c 0a96 2447 a43f 2e7a 84fc 000c 9a3f
00000080: e656 960b 14a0 903f 7d9b f769 b957 903f
00000090: 8f45 600b 74a7 8a3f 6fac dae6 f8d0 913f
000000a0: 87a1 9a06 2749 953f 8861 105a 4ddf 853f
000000b0: 77dd b11a 24da 813f 0b88 47bc 8f1c 943f
000000c0: 00b4 27fd 7230 8b3f 6c85 1714 9276 953f
000000d0: 70ac 9154 abd6 973f 7aff abe8 df90 933f
000000e0: b21f 82cd 1f27 993f 2168 dfc9 3e81 753f
000000f0: fd88 66f8 80d0 9a3f b420 c7a7 f723 973f
00000100: 5048 d01f becd 983f 66c6 ef19 e649 993f
00000110: a1cb 20ce 4d1e 943f a8ff f583 7db7 923f
00000120: 6673 d760 7479 a83f 8915 85e8 4bce a73f
00000130: 4a49 00c9 b43c 933f 073a f2df da9e 903f
00000140: 3352 966f e146 803f 16c8 2404 3ac1 a73f
00000150: a453 80fb 5b3b a23f 2d83 8c1e 862d a03f
00000160: 7987 c012 4ec6 863f d73e 34b9 1a36 7c3f
00000170: 8763 f151 94e2 873f e961 213e 9ada b03f
00000180: 24f8 a26b 6e9d 823f 7922 86c6 3ff1 b03f
00000190: 6b04 ed90 f56c a53f 6b0d d891 03e4 ae3f
000001a0: 7492 d50a 60a6 903f e9b4 cf2b bb1f 9a3f
000001b0: a644 2dc3 7046 883f 6169 9e82 c5c6 6a3f
000001c0: 9a9f 5a3b d520 a23f 4f6c afdb 48c6 9a3f
000001d0: c233 4334 06bd 7e3f d579 3f75 bd1c 8b3f
000001e0: f9c3 ab4b 97ba 7c3f 99c2 1e62 3592 a13f
000001f0: de45 f3a3 13c0 983f 6083 4c76 e480 a13f
0.013156279464752278 0.04357381475771374 0.0036070258083093984 0.008187494557489515 0.0806863123887852 0.013028395912407743 0.018711102380434698 0.013313626738050905
0.05801324857090718 0.028814379002829616 0.022327438594733618 0.00858349281088512 0.017929908320505013 0.019685266475727256 0.03960527736230564 0.025436416065639893
0.01623565026019138 0.015959641545034032 0.013014704320115892 0.017398728456708697 0.02078686693008216 0.010679821311030194 0.008716852249775127 0.019640203348792833
0.013276003218345878 0.020960123516379367 0.023279835735973753 0.019107340408481367 0.0245633095915136 0.0052502110174490755 0.026186003838696504 0.022598142257067536
0.024222346011875395 0.024695964177175254 0.01964685030561564 0.018278084925895804 0.04780162508152479 0.04649579251649089 0.01878626324475733 0.01623098365649336
0.007947694032545893 0.04639607716161735 0.035609125567283045 0.0315973198214635 0.011120424220340418 0.006887535465707826 0.011662634611796964 0.06583560959678149
0.009089338931854547 0.06618116947914555 0.0418469180499493 0.06033335833856309 0.016259670888205638 0.025511669682534075 0.011853104549717063 0.0032686097737954366
0.03540674542938334 0.026147020729564038 0.0075044863080621655 0.013238411083816107 0.007013884542844012 0.03431860754733868 0.02417021454022527 0.03418649620130654

encoder.1.0.weight f8 [64, 64, 3, 3]
00000000: 4bc1 0162 f869 b53f 2f9b eaf5 16b1 8f3f
00000010: 2c96 53bd 5234 9e3f af21 097a 375d a23f
00000020: 6810 6805 d9bd a73f e8a1 0d46 96ef ab3f
00000030: ba5e 2511 e824 4cbf 0f48 4f28 9ebe b93f
00000040: d736 4d93 9ccf c83f 954c 8f0e 62f6 a73f
00000050: 0b0d 3b84 b90f b33f be5d 9e42 f280 c73f
00000060: d707 ea02 5065 a2bf ba7e 3456 fcbe b53f
00000070: 7727 8ab5 dec9 a33f 87d4 7b4f fc4e 6b3f
00000080: 5829 3781 98fb c73f 9b0d 0688 866e a9bf
00000090: 4e27 e8b7 f698 60bf 563e c365 9740 a3bf
000000a0: 5583 ea96 4f5e 9c3f f1d3 c555 efa6 903f
000000b0: 6dfa 6189 d47a a6bf cf6d 26b5 a9e0 a4bf
000000c0: ab35 5692 864c b1bf ee67 2285 575f aabf
000000d0: edb7 b945 ef4a a9bf 4a50 bb1c 6d42 ba3f
000000e0: 9710 fd91 7a77 9d3f ea88 357b 1634 7bbf
000000f0: 8460 a5f1 5da9 c03f d72e 4837 a2b9 ba3f
00000100: 0f3e 9db8 8c02 9e3f 3b22 7747 aa98 9e3f
00000110: 93f3 0612 1b50 6a3f a08e a886 cce3 a3bf
00000120: 2c8c a5c0 d001 c1bf f885 69f9 886e 8bbf
00000130: 20b8 aba1 8c79 913f 9646 4719 d659 bfbf
00000140: c974 56b5 c143 93bf 4be6 27b0 e5ad a53f
00000150: 759b e805 06e4 c6bf 2658 5bdb be4b b7bf
00000160: d087 e0a5 8882 c0bf fcaa 843c ac47 b53f
00000170: 645b a91a 067c a3bf b859 d722 b2a0 b43f
00000180: 4b32 5f70 1e88 b13f 51ba 8c4d a1b7 a3bf
00000190: c051 16c7 a5fe a6bf 8798 f7d5 a3f5 99bf
000001a0: 6927 a256 a09d a4bf 3f62 11bb 7f79 a5bf
000001b0: 1d95 3e1b 6cb4 c03f 5058 6c0d 692b a8bf
000001c0: 5a55 8ee6 d04b c73f 1d5e 5bee 51b2 c53f
000001d0: f80e 32e3 0d7a b8bf 1090 1498 4955 bc3f
000001e0: bf57 0fb6 9847 b43f 48b4 cec4 fab6 b2bf
000001f0: 9ce9 4d26 ae79 c4bf a8cb 5e31 d0f2 c3bf
00000200: 94c3 638b 7118 6e3f 8d80 6a36 5d58 c03f
00000210: e397 89f3 354f b6bf 009b c2af ef50 9c3f
00000220: bf62 0a39 f3e2 553f b650 d590 a4da b7bf
00000230: 86cb 423a a370 89bf d19f e41c 388e 6d3f
00000240: 8628 d861 ab0f c5bf f1d7 fbb6 5e48 79bf
00000250: 4365 d4b7 d6d1 46bf aaac 2244 5203 c5bf
00000260: 39e4 a85d 3731 6fbf 1ad5 23a3 8b4f b0bf
00000270: 2ba9 cd74 096a c7bf b0c0 53c6 a312 c2bf
00000280: 5efa 96e7 62d9 c5bf 4bb2 1709 cf93 c03f
00000290: 3f12 4966 2598 b33f 6c03 31fa 16e0 9b3f
000002a0: 2908 3d19 7e90 aa3f 9574 ddfc 7433 aa3f
000002b0: e9b5 7bcb 80a4 783f 2af0 3480 0475 a0bf
000002c0: cbed 690d 8f88 b2bf 95ee e4c5 52b5 afbf
000002d0: 5a33 7ab8 11f2 ca3f 590d 9333 cc29 c43f
000002e0: f501 c4cb 73ed ba3f 83ec 02f9 f109 d13f
000002f0: 97de e152 1335 c23f 7319 c37f 45f6 993f
00000300: 2bb5 13f3 7973 b53f 905b 972d 8676 aebf
00000310: 2207 8d72 f7a5 c9bf 25d0 7efb e7b0 51bf
00000320: 4045 d061 5d14 d0bf b249 c133 c7e1 d7bf
00000330: 13c5 94c9 354c c93f 826b c32a 5c8d 903f
00000340: 0029 f36b 17fb c5bf f2e1 313b 117d d43f
00000350: e551 7082 bffe d33f bde2 fba4 6c25 b83f
00000360: 62d5 359c d105 85bf 6a81 3d4a 191a c4bf
00000370: dab7 1f02 b0e6 7f3f fd25 3853 1482 c3bf
00000380: cd45 e74b f304 c2bf 57f3 b2c2 29c7 c13f
00000390: a1ea 0d94 4c47 9dbf 0dbd 6f02 c0a4 b9bf
000003a0: 4e88 6f4c 593b ab3f f044 22f4 d8f0 803f
000003b0: f20f a6d5 cdb4 c53f 0d59 f4a1 9a0f ad3f
000003c0: 9c7d 94c1 8d3e a2bf 3fcd 4efd 63a7 b43f
000003d0: bd2e c241 c04d be3f 027e c669 9e37 91bf
000003e0: 063e 15bb 7b37 a3bf 2ec2 456c 19bc b93f
000003f0: 84b5 d123 67f0 c73f 4ab1 69bb 4166 b53f
00000400: 1524 08b3 d843 c93f b5f6 e650 6568 c83f
00000410: c24d 19b5 2690 ba3f bd7b 852e ff87 b23f
00000420: c1a5 8547 f68e b23f df9a c78f 86fd 893f
00000430: e570 92dc a834 95bf 36da 934d fa75 ca3f
00000440: e80c 2036 f968 b03f a278 b191 b989 a33f
00000450: c329 6a34 002b cf3f fee3 a807 699f bb3f
00000460: d443 068f c09b b2bf f1ca cb97 12da 8d3f
00000470: e1eb 5bb9 60ce b33f 03c1 9c8f b02a 92bf
00000480: 8307 4ac5 eeb5 d23f cb18 2aa6 27d7 c53f
00000490: f492 fe72 10a5 c33f b8c5 0eb0 0e81 d23f
000004a0: f863 ee76 7be4 bb3f 28ba ae0b 1e4e 8dbf
000004b0: 1182 44c9 2ac0 b73f 062f ad38 e50f a3bf
000004c0: bd71 fdeb 826e b2bf ca01 d9a9 7ad4 b1bf
000004d0: 6859 57bf 1099 7ebf de57 54b3 f188 a2bf
000004e0: 2cdc ddf8 b4fa 7ebf bb5f 3a94 4ac9 a2bf
000004f0: 5856 1498 f0b6 b53f d709 bd5e dea8 c1bf
00000500: fbb4 2114 1297 bfbf 0a53 0fec 9872 a5bf
00000510: 0d65 c0f2 4268 83bf 0aab 0379 0318 a63f
00000520: c034 0684 61f7 8d3f a32c 5953 d911 a0bf
00000530: 2f8f 2ba0 7045 9a3f 519d e5bd 8b44 6dbf
00000540: 475b 1a6e f525 c2bf 57a6 5b34 c97c 9d3f
00000550: f8fc 89c4 f11e 823f a5f6 efd4 425a bebf
00000560: b443 ef8a 0775 6f3f a431 5cc9 2717 943f
00000570: c404 723b 61c1 bcbf 979a d1d2 4fa4 a6bf
00000580: d12e 85c2 2072 a5bf d144 39b4 6031 c6bf
00000590: 2790 2ec0 5162 bcbf d96a 2010 fa1c c7bf
000005a0: 9b58 bf26 4aac b2bf 34f7 f6c5 c867 96bf
000005b0: f8c0 a653 cfc5 a03f a7c7 855f 99a0 bcbf
000005c0: 54f4 9802 a167 913f 9c13 7144 7dd0 96bf
000005d0: cb77 d0f2 c8f7 acbf 51b1 8e9f 5328 9fbf
000005e0: b739 9c51 e549 b23f 361a 2ee4 d3fd ce3f
000005f0: 6c76 a8e5 d99d ac3f b687 7410 d014 af3f
00000600: 63a1 bcae f877 c63f 64e3 dcfe 7bfe b33f
00000610: 201c 01be efff b0bf feb1 42b1 3bbd a53f
00000620: 0541 62c1 42ad b4bf 5bf1 252b 3123 babf
00000630: 11f4 9efd 882b c13f 531e 439b c0e3 b9bf
00000640: 7b24 e630 ca15 c4bf baec 5e13 ebfb d23f
00000650: 67be 9f8d bf9f a7bf 3655 ad22 5878 843f
00000660: 1981 11ff bcf2 b33f 859e fff4 90a1 bc3f
00000670: 5a1d bed7 5b1f b13f f478 92ed d02c b93f
00000680: 8764 4835 3354 9d3f 86f7 fbad 97a0 9a3f
00000690: b196 6165 b1c5 b33f abc1 f8fb e161 a73f
000006a0: c5c3 34b9 2de1 bb3f 301c a71a e062 9fbf
000006b0: 800b b0db 902d c2bf ee4d 5027 b9e4 b2bf
000006c0: ae86 4042 ec00 90bf 7fca c3f2 987d a43f
000006d0: 9a96 70c1 46d5 abbf d00e 3d15 b08e aa3f
000006e0: 54c1 708f fb38 b0bf eb0a d859 749a b63f
000006f0: a3a1 e318 c002 96bf 2009 2603 3bb9 b2bf
00000700: 5504 f7fe c86a a5bf 6e33 aad4 3c5e c9bf
00000710: 18d2 0638 9d12 95bf d86b 207c 65b9 98bf
00000720: 943a d2c0 f120 b7bf ada5 39b0 5ebe a13f
00000730: 971b ea7e 9bdc ae3f 24d6 9eda 6ff3 b8bf
00000740: c2cb 05b6 c435 463f 9d9d d929 3010 a5bf
00000750: 1e92 b57d 9f58 7abf ac1a cb8b 2939 6dbf
00000760: 6660 1101 fc94 a33f 717e 14fc 38e7 7d3f
00000770: 2b4c a269 2d6a 953f 6750 e4bf 58f2 a63f
00000780: 2f53 b409 04e9 99bf 0b58 f55d 29c0 87bf
00000790: 987f e0e8 6737 b23f 5809 0554 6655 cc3f
000007a0: 1a64 33c1 35ca c13f a865 fa43 37f7 b73f
000007b0: 9f4e e26e fc28 cb3f 94c4 8fd0 ea62 b03f
000007c0: 4288 d242 2c79 b43f c784 d81a a5bb b03f
000007d0: 2a4e 8af4 d61a b6bf d58f 8c54 03d3 b6bf
000007e0: 4ecd 0251 0f8d c0bf 631d 008a 16bf a1bf
000007f0: 61d2 b2bc 7ae2 98bf 0408 b17b 72e8 b8bf
0.08364822762246608 0.015474490527891042 0.029496472173283703 0.035867437025959396 0.04637029829976386 0.05456227879659875 -0.0008588917865308334 0.10056484684108134
0.193835803913706 0.04680162837726091 0.07445868948257243 0.18362262966978266 -0.035929203372702716 0.0849454603635377 0.03864952055034981 0.003333561700737567
0.18736559209203096 -0.04967136774487387 -0.0020260637968520295 -0.03760216824741451 0.027703517519174287 0.016261806116251113 -0.04390587021861312 -0.04077654205613223
-0.06757393906283109 -0.05150865078140031 -0.04939983106747534 0.1025760836740243 0.02877608791392613 -0.0066414716887683665 0.1301686696922425 0.10439504480035154
0.029306601303060783 0.02987924634160975 0.0032120255202400887 -0.03884734290866487 -0.13286790281844796 -0.013394422637420952 0.017065236442185605 -0.12246454350613542
-0.018813158696151775 0.0423423554929739 -0.17883372581965387 -0.09099953513518297 -0.12898357486215994 0.08312489011283825 -0.03805560183962234 0.08057702398887201
0.06848325961545602 -0.03851036140109854 -0.04491155677093017 -0.025351104673881266 -0.040265093398445036 -0.041942588410794894 0.1305060513524631 -0.04720619477136323
0.1820012212526006 0.16950439585228674 -0.0956124000240911 0.11067638361834065 0.07921747631857466 -0.0731045465933714 -0.15996338720635783 -0.1558475724283117
0.0036737649598923092 0.12769665867836402 -0.08714616008509739 0.02765249738936415 0.0013358473990249667 -0.09317997489898996 -0.012421870437128179 0.003607854457317907
-0.1645406940227227 -0.006172533015833524 -0.0006964014461658192 -0.1641638596241582 -0.003807647835199404 -0.0637137673655456 -0.18292349055566012 -0.1411938398737269
-0.17069660480588572 0.1295107645413672 0.07654031512454028 0.027222022076105842 0.05188364084325798 0.05117383562785808 0.006016257386119752 -0.032142773294680474
-0.072396221899843 -0.061930262238516644 0.2105123663681308 0.1575255634144053 0.10518573498485025 0.26623200719377155 0.14224473521220624 0.02535351364419953
0.08379327949997577 -0.05949801737340643 -0.20037739842705898 -0.0010797753766214138 -0.2512429671488299 -0.3731554036541197 0.19763824789837567 0.01616424571043807
-0.17172520419109816 0.32013350277659847 0.3124235891166605 0.09432105091026251 -0.010265004710826534 -0.15704647183430193 0.0077883601497727665 -0.1524072080940612
-0.1407760735151399 0.13889047629154547 -0.028592297112008173 -0.10017013606533372 0.053187170582319795 0.008271880102514534 0.16958020145477765 0.05675967432959981
-0.03563349712407701 0.08067917761109288 0.11837388616020923 -0.016813731390014304 -0.03753267916419749 0.1005264176690239 0.18702401398642732 0.08359156442174256
0.1973830103090967 0.19068590593626814 0.10376207276686158 0.07238764653946723 0.07249392744201712 0.012690593016441763 -0.020708692991875294 0.20672539508787374
0.06410176822105351 0.03816013244134921 0.24349978026687155 0.10790115773205852 -0.07268908969696436 0.01457609678025082 0.07736782575004454 -0.0177409732488636
0.29235429064294055 0.1706285058355149 0.15347486128771204 0.289127036982872 0.10895511296838822 -0.014309153300783597 0.09277598775634767 -0.03723064724780838
-0.0719987703464033 -0.06964842459365808 -0.00747019330943597 -0.0362010508926429 -0.007563311502841546 -0.03669198092865097 0.08482269013287558 -0.1379659617033002
-0.12339890471931263 -0.0418899334105501 -0.009476206811131616 0.04315195896363917 0.014631997911033756 -0.031386176514012896 0.025655517364511823 -0.0035727242786155818
-0.14178340793724883 0.028796333141974575 0.00884808426894644 -0.11856477450052212 0.003839983684408266 0.019619580903098247 -0.11232574178031302 -0.044222349629128015
-0.0418863522960159 -0.17338188934312496 -0.11087523405018428 -0.18057180201943515 -0.07294143148405612 -0.02188028057366083 0.032759169541693056 -0.11182554800123388
0.016996875556504712 -0.022279698660230815 -0.056577949181004415 -0.030427271474466725 0.07144006006658442 0.24212120668035347 0.05589180878108099 0.060705663689318554
0.17553623706886431 0.07810187313306255 -0.06640528095987053 0.04245935953926859 -0.08076874944004338 -0.10209948829100794 0.13414108642419412 -0.10113147535877802
-0.15691497218748282 0.2966258706253019 -0.04614065746124823 0.009995163496265929 0.07792264201407696 0.11184030515107153 0.06688474671510872 0.09834008979894177
0.028641510130999605 0.026003236765056247 0.0772353050720891 0.045668661125435626 0.1089047028697357 -0.030650617243534295 -0.14201555945336608 -0.07380253991896499
-0.015628520530418903 0.0400207325309525 -0.05436154471707973 0.05186987170466539 -0.06336948635067091 0.08829428857283587 -0.021494866866221717 -0.0731388933836894
-0.041830330966612074 -0.19818840393090958 -0.020578819794268538 -0.0241447312365429 -0.09034644086407645 0.03465553189455348 0.06027685093163553 -0.09746455275929883
0.0006777964118057577 -0.04113913069596296 -0.006432173740311712 -0.003567296166099373 0.038246035700183964 0.007300589176594139 0.020912847111116555 0.044817708420084305
-0.025302947132405492 -0.01159698789585308 0.07115792689773881 0.22135619261286865 0.13898345883970437 0.0936159649812881 0.21218829550035864 0.06400935737453245
0.07997395163923307 0.06536323457159475 -0.08634704084607195 -0.08915730299173615 -0.1293048043786293 -0.03466101107192789 -0.02430145050739652 -0.0972968627911826

encoder.1.0.bias f8 [64]
00000000: 6810 d004 90bf 5a3f 50b5 fbfe 2b2d 52bf
00000010: 1813 6afc 8742 7e3f a7bc f8ff 8336 943f
00000020: 2cb6 d640 5086 993f 5ab5 d100 d474 88bf
00000030: 14c3 3202 ed3d 773f 55df ab40 db64 9d3f
00000040: 99c5 cf01 308d 66bf 7b35 3920 9e6d a13f
00000050: b462 b43f 4c34 a0bf 24be 4c8a 402a 3f3f
00000060: 3d10 3560 1490 a13f d0ee d47f 5596 833f
00000070: 8f58 9380 89b9 84bf b0ec 18e0 1acd a2bf
00000080: 55cd 0601 6243 81bf fa55 8c7f 55fe 853f
00000090: 8004 74c3 a8ec 8bbf 17ef 357f f8e1 83bf
000000a0: 93c2 4bc0 b1bf 9c3f 133c 0820 a907 a13f
000000b0: 4a4e 64c0 d2eb 9cbf 9719 3bfd 6575 633f
000000c0: 9369 0700 1a10 933f ad42 c70b 682a 473f
000000d0: f07e 90bf 0f4e 9dbf 2168 dabf 65d5 a2bf
000000e0: 0089 e040 c2d4 993f 1e4a 80bf bb4b 9a3f
000000f0: 596d 8403 efab 783f dec0 8101 68cc 753f
00000100: a455 1303 a51d 71bf 0f04 d7bf c6a0 89bf
00000110: 21cf c75f 962d 99bf e8ec 23fe d70b 72bf
00000120: d2d5 2460 f48d a0bf 6558 a0ff 2e7b 743f
00000130: e8b6 557e 7715 8e3f 62f9 3df9 17de 493f
00000140: fc11 58fc 5b9a 51bf 948c e7bf f17e 943f
00000150: b417 02e0 145a a23f a8ca c5bf 8b91 933f
00000160: 4550 ed1f c983 a43f abfd 3280 29a0 8abf
00000170: 7239 2d02 3cfe 5b3f ce75 9140 7500 963f
00000180: 3e4d 1de0 a469 a03f 9efe 633f def0 903f
00000190: 4175 99fd efce 5f3f b220 e9ff 3ebb a2bf
000001a0: 4f30 8b40 de64 9a3f 8f83 53bf 9727 9f3f
000001b0: 243d 9d60 d2a3 a23f 88e5 e37d 1d94 86bf
000001c0: e81d 5400 111b 93bf 49ac ffbf cf66 9b3f
000001d0: 1278 3880 221e 85bf 6a61 9260 dd10 a0bf
000001e0: 9f97 2002 80ed 653f fce2 2ce0 4d95 a3bf
000001f0: ace2 0340 27b6 9a3f 0bf7 c33c c139 19bf
0.0016325861390678268 -0.0011094026230538852 0.0073876678421853845 0.019739210603969905 0.024926427800599324 -0.011941581988333883 0.005674291434090834 0.02870504934523351
-0.002752870334454993 0.034039441522149404 -0.031649000908321595 0.00047554088296217407 0.034302365058949104 0.009564083064666745 -0.010119508968653683 -0.0367210768276548
-0.008429303795174073 0.01073900981422592 -0.013634985413320644 -0.009708348638688897 0.028075005876362424 0.03326157108323726 -0.02824334429995038 0.0023753158546668362
0.018616110088126425 0.0007069595372347269 -0.028618093554654445 -0.03678434340436377 0.02522567292192779 0.02567952495889802 0.006023343703670158 0.005321890137665456
-0.004178661897829814 -0.01251368782948428 -0.024587964626291318 -0.0044058263031232295 -0.03233302758819047 0.005000289524124656 0.014689382117207342 0.0007894150789835958
-0.0010743997858081436 0.02001550420562788 0.03584351763224394 0.019109901027557413 0.04006794466718636 -0.013000797486141765 0.0017085634251149087 0.021486122194223793
0.032056000097009804 0.01654383909135381 0.0019414275797296628 -0.036584824313253064 0.02577540654128568 0.030424471905351743 0.03640611104367 -0.011024694828381212
-0.01865793766503812 0.026759382337257418 -0.010311383760434754 -0.03137866786818473 0.0026767254030514854 -0.03824847566142428 0.026085484773804055 -9.622804572370304e-05

encoder.1.1.weight f8 [64]
00000000: db86 345b aca2 f43f 7cb7 168b db7e f63f
00000010: fb4b 38d1 8768 ee3f 3793 d2ce 558e f13f
00000020: c0e8 85e7 2911 f13f 1c7f 667f 29ce ea3f
00000030: e387 1698 b640 f13f bcf6 b437 fca0 f13f
00000040: cc90 d813 ffc6 f23f 11da eaa3 24b9 ec3f
00000050: b083 eee2 b5b1 ed3f ef6b f521 5990 f73f
00000060: 57dd 5d1f 7881 f13f 4328 7c88 30b7 f13f
00000070: f437 119e 61b6 eb3f 7097 a034 90cd e73f
00000080: 6df9 e3e8 c613 ec3f eb46 e70c 17ea ec3f
00000090: 2d37 84bb 3d99 f63f 49bc a174 eb0f ea3f
000000a0: e90c 8aad 30b7 f13f 109f 2245 0303 f33f
000000b0: 7420 acb9 8053 f23f e864 bea5 1a5d f13f
000000c0: 414d 7498 c859 f13f 4525 814b 86bc ec3f
000000d0: de09 408b 70c0 ec3f 17ba 4e85 4272 f03f
000000e0: 30cd a031 59b6 eb3f 1c8c 8e61 8052 f13f
000000f0: 6b79 2e01 f61d f23f 53a7 c4da 4339 e73f
00000100: 4568 99c6 4fec f13f 269c d6b9 fbcc eb3f
00000110: 28a4 3975 d2c9 ea3f f8d8 2728 311c f13f
00000120: adec 4281 129b e43f c3d2 327c a2dc ee3f
00000130: fb06 053f 8827 f23f 0e23 a530 8e8f ec3f
00000140: 33f2 9e3e bafd eb3f 9fa5 6725 9666 e83f
00000150: 577a 1ef4 0384 ef3f 9127 2f19 b1ae ef3f
00000160: a509 c118 1360 f03f d856 51cc 88bc e83f
00000170: 8bcf a3aa 39b1 ec3f 512a ea4f 0651 f33f
00000180: 604c b7e7 9ae4 f43f 4f34 82c2 d20e ee3f
00000190: c1f4 fff1 0673 ec3f 83f1 3ade e5e0 f03f
000001a0: 8eab 572f 0943 e63f 035a 9ddd 4484 f03f
000001b0: f430 990b e708 ec3f dc83 22e7 1d35 f13f
000001c0: 6cf0 bf9d 3cca f03f 11bf 3161 677d f13f
000001d0: 93b3 f108 8f9c f13f cc5e 24af 5858 f13f
000001e0: 6c31 e7c1 4bac f03f 3557 8c47 28a6 f03f
000001f0: 06b6 dd3d fd9c f03f fc95 be93 f481 ec3f
1.2897151529982043 1.4059710915712165 0.9502600752188067 1.0972498015409664 1.0666903537626666 0.8376662720001806 1.0782991352975777 1.1018030334520708
1.1735831046326437 0.8976004792701265 0.9279431755313592 1.4727412535200946 1.0941086983928778 1.1072240191883942 0.8660133445025608 0.7438431766392863
0.8774141834872303 0.9035754444141423 1.4124123883115758 0.8144433286632956 1.1072241572263073 1.1882355404467866 1.1453864338709794 1.0852304911007256
1.0844198184248202 0.8980132555672432 0.8984911651353362 1.0278954703641199 0.8660093278216774 1.0826419649899952 1.1323146864084161 0.7257403633895855
1.1201932676108453 0.8687723760275545 0.8371364869646003 1.0693828171329738 0.6439297222745118 0.9644329477074155 1.1346514188484764 0.8925238561724613
0.87472259741441 0.7625227671207319 0.9848651664686469 0.9900746814612252 1.0234557120280467 0.7730144491749469 0.8966339428720728 1.2072814103763856
1.3058117915541274 0.9393094824787428 0.8890413977202557 1.0549067192906427 0.69568309065413 1.0322922379324388 0.8760867334872544 1.0754679707244952
1.0493742143726434 1.0931161686566535 1.1007223462467877 1.0840689507949035 1.0420644354190598 1.0405657572604927 1.038327447571079 0.8908636937746333

encoder.1.1.bias f8 [64]
00000000: 1da5 0fcd b628 993f 4580 575a 04ea c23f
00000010: 59df 0b0b ee30 b63f 314e 97d9 0971 9abf
00000020: 3e50 1820 553a bbbf cd69 593e 46e3 d1bf
00000030: e7e1 f19e 89a7 b7bf b7ae 6002 0f4f aa3f
00000040: d045 596e 7c26 81bf d493 d365 f187 cdbf
00000050: 23ae 9e84 5a61 c6bf e2d1 0234 07d3 c6bf
00000060: 212f 483c c1fe c73f 4cf7 b1ff 2ce9 853f
00000070: 2479 360d 9616 ccbf e2e5 6063 4ac3 ddbf
00000080: 90de 55ed 890d cfbf d636 60b3 768a ddbf
00000090: 79ce d357 5df2 9bbf 1bfa 5571 a687 d4bf
000000a0: 74f9 10bd a834 90bf 0bca dfa1 6909 c6bf
000000b0: 665d 8bb3 17c5 a7bf 73da 77be 90cc 643f
000000c0: 92cd da1c b23d bfbf 0d86 703a cba4 d2bf
000000d0: ccee dfb3 b98e c6bf 074d 6a35 f649 9ebf
000000e0: 8cb1 cbfc 7236 e3bf db4a a89d b4af c63f
000000f0: cb50 ddc5 fd5c 623f b9fb 5910 5d68 e3bf
00000100: 2f03 5c76 6f67 ab3f 959c ebde 5edd d4bf
00000110: e1e9 bb42 dbca cabf a486 d0e7 fb6e a13f
00000120: c5c1 c368 9a25 eabf 86be 417d eb9d c2bf
00000130: 32ab 155c 0d24 d0bf 23ab 17e1 4f55 dcbf
00000140: d68d dc90 caa4 d6bf f8cc 5ff4 4492 e3bf
00000150: 3d2d 3bca af49 a1bf 8efd 5ea7 6e02 cfbf
00000160: 7958 9a24 b818 6cbf ea2a 3f8c 9a06 d2bf
00000170: b8ab e9f5 9481 c6bf d9f9 be60 be7a b43f
00000180: 2a8b 547d df6b c0bf 8c63 cca4 2f51 d0bf
00000190: e264 4a7c ff7a d1bf 7da4 1ea1 aa83 943f
000001a0: a135 bd97 22fd e1bf 37de fdf8 ef8c b5bf
000001b0: f5cf e33e 9cca d1bf 2d8c a33c e174 b1bf
000001c0: 89bb 6008 48d9 b2bf 8d98 5391 cbed a43f
000001d0: b246 a362 e559 92bf 5d41 68eb cb79 bebf
000001e0: d541 5ad5 eeeb 753f 6636 86d3 6901 adbf
000001f0: 4f93 df19 1de9 c43f 9200 e676 af33 d1bf
0.024569374338090023 0.14776663218708755 0.08668411035239156 -0.02582183256693166 -0.10635883363312446 -0.27949672783657037 -0.09240017061700422 0.05138441947960131
-0.008374187581611375 -0.2307111499023039 -0.17484599567011214 -0.17831506766891808 0.18746200030761265 0.010698653748700736 -0.21943927426486554 -0.4650445909970512
-0.24260067070621405 -0.46157615201160007 -0.027291735158498007 -0.3207794291301142 -0.015825878658000517 -0.17216225055706533 -0.046425572077789565 0.0025389506370133096
-0.12203515247784072 -0.29130821902262555 -0.1762306335730187 -0.029579016695220364 -0.6003966271796783 0.17723710725893835 0.0022416073324312605 -0.6064896888127499
0.05352352447335417 -0.3260113884884473 -0.2093156886911194 0.03404986576812277 -0.8170902296242778 -0.1454443322759184 -0.25220045082703557 -0.4427070329826838
-0.3538080610908002 -0.6116051457342158 -0.03376530975000456 -0.24226172611632218 -0.0034297558348255733 -0.2816530580136446 -0.17582952506503857 0.07999791967356575
-0.12829202289238967 -0.25495520680993233 -0.2731322015548142 0.02003351791760054 -0.5621502841619767 -0.08418178395174257 -0.2779913534316159 -0.06818969469490872
-0.07362795071160923 0.04087673329358763 -0.017921051164029485 -0.11904596802947283 0.005351956313134972 -0.05665140826304764 0.16336406482073548 -0.2687796269528998

encoder.1.1.running_mean f8 [64]
00000000: 11a1 ea90 3455 1340 bc61 a5d3 d326 22c0
00000010: d60a 4f0e 2182 0ac0 6c71 6931 1376 f43f
00000020: a7c7 e30c b43a 0ac0 a68f e1fb 631b 02c0
00000030: 3c50 0000 1791 0040 c851 e09f a942 02c0
00000040: 0f65 a10f f57c 16c0 69d8 cd1a 35ec f3bf
00000050: 1d14 5103 17de 0bc0 6f6d b4a0 93f8 26c0
00000060: bcff 9527 2625 12c0 2377 975a 78ee 1840
00000070: d9f5 7c01 c543 f23f b775 de52 aede fc3f
00000080: a405 d460 88fb 07c0 cc52 3c73 95e2 1dc0
00000090: c3a5 651f dbfa 26c0 a61d 72ee 1ff1 04c0
000000a0: 8ee8 b13a 21e4 12c0 c116 cb85 23c8 0c40
000000b0: 07d2 7944 4141 17c0 e3cf 43ab 274f 843f
000000c0: 7665 2df7 4dd8 18c0 635b 9daf dbc0 12c0
000000d0: f1df 8371 7c6c c33f 5cb8 cb85 78d1 0bc0
000000e0: 0ef3 87e5 6d4f 23c0 9149 f75d e94a 20c0
000000f0: fdd2 6d3a 8ea2 f6bf 0a87 5030 479e 14c0
00000100: ef75 52d9 acd2 f43f 1575 8cf3 bf8e f5bf
00000110: bebf 81f4 5e6d 01c0 02a3 e854 f3d9 10c0
00000120: 189d 7bdf 4529 07c0 b1e7 e2f7 3f49 17c0
00000130: 54b5 6785 e485 1ac0 b02b 42e1 ce3c 13c0
00000140: d86f 2aaa 64be febf 7fae a2d7 fae8 05c0
00000150: da3a 46fa 0978 a33f d619 2141 52d6 11c0
00000160: 5a8c 34ca 4ac5 12c0 1e89 b74d a0e6 0ec0
00000170: 18b3 51cd 56de 1fc0 22d7 04a2 9f12 02c0
00000180: fb8f c1b1 bf62 0e40 f769 6d8e ffb8 1bc0
00000190: f9d5 6354 df01 ffbf 47e8 17a8 1b31 1fc0
000001a0: c9bc 7c10 e9f3 10c0 43ec aced f451 1fc0
000001b0: 981c 37d3 e70a 14c0 c3a7 8fc7 9939 17c0
000001c0: 7adb e1c8 1248 04c0 7c9e f926 36e0 1cc0
000001d0: 15bf 7570 9cac b1bf 3b47 333c 9986 22c0
000001e0: 22ef ab67 2543 14c0 8c36 bd22 6619 15c0
000001f0: 79cc c983 595f 0bc0 a457 111c 43d2 18c0
4.833208336182239 -9.07583485978909 -3.3135396116134457 1.2788268976356347 -3.2786637312901408 -2.263374297925071 2.0708446502776763 -2.2825500955898157
-5.6220285837419075 -1.2451678320917614 -3.4834423312299934 -11.485501310372198 -4.536278360872469 6.232880988592828 1.1415453012590346 1.8043654667920757
-2.997818714590453 -7.471273232037401 -11.489953023107665 -2.6177366856170066 -4.722783009632748 3.5977240040400322 -5.8137255381921085 0.009916601099099814
-6.211234914918682 -4.6883380355637625 0.15174823324900857 -3.4772806599421937 -9.65513531956233 -8.146311699329802 -1.414686420667919 -5.154568438448914
1.3014343728203774 -1.3473510278338996 -2.1784037687393427 -4.212842299174328 -2.895152803382768 -5.821533082222161 -6.63075455136762 -4.809382934249626
-1.9214827200985294 -2.73875969376769 0.0380251997004188 -4.459298150677986 -4.692668113190928 -3.8626104423175454 -7.96712799845843 -2.259093538067547
3.798217190475041 -6.930662370136353 -1.9379571243747462 -7.797957064112842 -4.2381937576421445 -7.830035890273453 -5.010649967421294 -5.806250684874558
-2.5351920789648235 -7.218956574426212 -0.06904008622745679 -9.262887841472198 -5.065572376126314 -5.274803679274225 -3.4215574546774943 -6.205334127958768
